cifar_net.pth (torch, 251604 bytes, 10 tensors)

conv1.weight f4 [6, 3, 5, 5]
0.22456484 0.24372908 0.06036986 0.37462333 0.17172267 0.15022668 0.389097 0.3402205
0.36289892 0.050060928 0.19809435 0.5828047 0.72836375 0.35703012 0.0070401696 -0.26246372
-0.456614 -0.40400162 -0.48429736 -0.30186996 -0.12898608 -0.5099561 -0.53039193 -0.37585655
0.016945112 -0.066068314 -0.34355438 -0.23353577 -0.30798367 -0.1232268 -0.20964456 0.12387092
-0.111211434 0.020205686 -0.27332887 0.078640826 0.5372279 0.6042185 0.2765542 0.015149687
-0.22469506 -0.36305204 -0.4187595 -0.38168907 -0.26160908 0.037778687 -0.30584997 -0.20333341
-0.14034244 0.33189845 -0.06524416 -0.15745519 -0.3063337 -0.20300704 -0.14660469 -0.12816003
0.12898485 -0.079718865 -0.012311406 -0.11992862 0.029261027 0.57626295 0.66681135 0.27251244
0.1904608 0.06851934 -0.21906011 -0.31602526 -0.17131619 -0.063935675 0.24305922 0.020287242
-0.09438953 0.051096175 0.3290227 0.03443119 0.13644059 0.1465928 0.033748955 0.16216362
0.03535613 0.27649748 0.21094646 -0.07692572 -0.14598244 0.02319705 0.31311983 0.25985047
-0.114083566 -0.15212218 0.08260178 0.10839419 0.20782886 -0.20590547 -0.16382888 0.047041718
0.09162102 0.1362733 -0.21737018 -0.12423084 -0.13949485 -0.13164741 0.0021573885 -0.1754765
-0.33407795 -0.14106987 0.14056772 -0.039061412 -0.4050661 -0.25436708 0.10460676 0.26484933
0.045597546 -0.42903915 -0.36608467 0.15195267 0.19408266 0.047771703 -0.22962095 -0.32347172
0.09394356 0.06971182 -0.063771755 -0.22168538 -0.3100644 0.012397369 0.21624388 -0.017731337
-0.27032188 -0.18245827 0.20730813 0.3288702 0.20224978 -0.20086628 -0.37657812 0.21897393
0.27786633 0.24733356 -0.34555918 -0.47205704 0.2212119 0.35147548 0.14680976 -0.16578057
-0.2129433 0.22985232 0.2338868 0.2118956 -0.06256397 -0.04034074 -0.4119596 0.13146387
0.52964574 -0.31050992 -0.11882404 -0.38177523 -0.006551572 0.5628702 0.002012516 -0.38621712
-0.32685503 -0.27320266 0.41403344 0.06250574 -0.40694398 0.07217004 -0.057885032 0.045980264
-0.1324261 -0.04454821 0.10785223 -0.019715967 -0.31365183 0.009478076 0.09193091 -0.3116853
0.28719807 0.55640626 -0.34808874 -0.20611136 -0.1501702 0.070798695 0.67888945 0.06639868
-0.21880345 -0.16958646 0.03774981 0.61975145 0.12125132 -0.19432339 0.10709509 0.02440983
0.085565135 0.037610512 -0.050497312 0.23332027 0.11720269 0.044024825 0.17593853 0.09416769
-0.41039613 0.11441225 0.38522133 -0.392735 -0.18875608 -0.25662023 0.08705867 0.47766876
-0.07340031 -0.31339204 -0.20109937 -0.24050577 0.3522016 0.02654231 -0.23532656 0.031383764
-0.07835127 0.020202857 0.061672524 0.024404354 0.07281382 0.09876332 -0.18798569 -0.059561983
0.06275849 0.012389633 -0.23586549 -0.15757583 -0.2614409 -0.21681145 -0.006863473 0.015265142
0.027544476 -0.12178946 -0.22839063 -0.32157364 -0.13516717 -0.20779777 -0.23493837 -0.40734255
-0.18349312 -0.15322399 -0.3135706 -0.26881242 -0.4042784 -0.18133076 -0.17483681 -0.123303555
-0.008564568 -0.14452639 0.06348759 -0.017413491 -0.061495744 -0.17473142 -0.09448075 0.022943217
00000000: 53f4 653e 1e94 793e 6346 773d a1ce bf3e
00000010: 11d8 2f3e 06d5 193e b937 c73e 6231 ae3e
00000020: e3cd b93e b00c 4d3d 3fd9 4a3e b032 153f
00000030: 0c76 3a3f a7cc b63e 39b1 e63b a561 86be
00000040: 4fc9 e9be 4dd9 cebe d3f5 f7be b38e 9abe
00000050: ed14 04be 7c8c 02bf c4c7 07bf 4570 c0be
00000060: 7ad0 8a3c d34e 87bd 5ce6 afbe 0024 6fbe
00000070: 09b0 9dbe 555e fcbd 10ad 56be 09b0 fd3d
00000080: d2c2 e3bd 6586 a53c c3f1 8bbe 710e a13d
00000090: c587 093f 10ae 1a3f 8398 8d3e 6536 783c
000000a0: 7616 66be f5e1 b9be a567 d6be c06c c3be
000000b0: a0f1 85be d3bd 1a3d 5e98 9cbe a236 50be
000000c0: eeb5 0fbe 98ee a93e bb9e 85bd ef3b 21be
000000d0: c5d7 9cbe 14e1 4fbe 8a1f 16be 623c 03be
000000e0: 9b14 043e a543 a3bd c8b5 49bc 239d f5bd
000000f0: d2b4 ef3c f885 133f 26b4 2a3f c086 8b3e
00000100: 2808 433e de53 8c3d 4b51 60be 10ce a1be
00000110: 836d 2fbe b5f0 82bd 84e4 783e 6e31 a63c
00000120: 4c4f c1bd 394a 513d aa75 a83e b807 0d3d
00000130: 15b7 0b3e 6c1c 163e 583c 0a3d 380e 263e
00000140: 97d1 103d 1491 8d3e 5902 583e 3b8b 9dbd
00000150: 6c7c 15be bd07 be3c 3e51 a03e 1f0b 853e
00000160: a5a4 e9bd ebc5 1bbe 1f2b a93d c6fd dd3d
00000170: 17d1 543e e2d8 52be c2c2 27be d1ae 403d
00000180: cda3 bb3d 3a8b 0b3e 4a96 5ebe bd6c febd
00000190: bdd7 0ebe 94ce 06be f962 0d3b 1db0 33be
000001a0: 440c abbe 9f74 10be fcf0 0f3e dcfe 1fbd
000001b0: d364 cfbe 673c 82be 123c d63d 559a 873e
000001c0: 7ec4 3a3d 05ab dbbe 736f bbbe 7b99 1b3e
000001d0: 9bbd 463e 43ac 433d c121 6bbe 169e a5be
000001e0: 7b65 c03d 12c5 8e3d c49a 82bd 7e01 63be
000001f0: c3c0 9ebe 561e 4b3c 096f 5d3e 4f41 91bc
00000200: a167 8abe 57d6 3abe 9548 543e ad61 a83e
00000210: 911a 4f3e e4af 4dbe d9ce c0be b43a 603e
00000220: 7f44 8e3e 0245 7d3e 22ed b0be 76b1 f1be
00000230: 5f85 623e 98f4 b33e 4c55 163e 62c2 29be
00000240: cf0d 5abe 685e 6b3e 0580 6f3e 29fb 583e
00000250: 8a21 80bd 553c 25bd 5eec d2be 779e 063e
00000260: dd96 073f 28fb 9ebe 055a f3bd 0b78 c3be
00000270: 92ae d6bb 4318 103f 6ae4 033b 40be c5be
00000280: 8b59 a7be 38e1 8bbe 31fc d33e 0203 803d
00000290: f65a d0be e3cd 933d db18 6dbd cd55 3c3d
000002a0: b59a 07be 2f78 36bd a1e1 dc3d 6183 a1bc
000002b0: f996 a0be ef49 1b3c 4646 bc3d 3795 9fbe
000002c0: a00b 933e a470 0e3f b038 b2be db0e 53be
000002d0: 38c6 19be e8fe 903d b3cb 2d3f 08fc 873d
000002e0: 030e 60be 13a8 2dbe 8b9f 1a3d 08a8 1e3f
000002f0: 9d52 f83d b6fc 46be ac54 db3d 20f7 c73c
00000300: c63c af3d 7b0d 1a3d 45d6 4ebd 82eb 6e3e
00000310: f707 f03d 6053 343d 3b29 343e fdda c03d
00000320: 711f d2be f850 ea3d bb3b c53e 9014 c9be
00000330: 4649 41be ba63 83be d14b b23d 0091 f43e
00000340: e752 96bd ec74 a0be feec 4dbe 2547 76be
00000350: c553 b43e 426f d93c 72f9 70be 438c 003d
00000360: a176 a0bd 7680 a53c 549c 7c3d a4eb c73c
00000370: 691f 953d 6c44 ca3d 527f 40be 44f7 73bd
00000380: 8687 803d e3fd 4a3c b986 71be 8f5b 21be
00000390: 95db 85be d203 5ebe fce6 e0bb a51a 7a3c
000003a0: f4a4 e13c c16c f9bd 3cdf 69be 4da5 a4be
000003b0: 4369 0abe f0c8 54be af93 70be 348f d0be
000003c0: 9fe5 3bbe c0e6 1cbe 538c a0be c8a1 89be
000003d0: 94fd cebe c5ae 39be 6c08 33be 9386 fcbd
000003e0: 6752 0cbc bafe 13be c805 823d bda6 8ebc
000003f0: f6e2 7bbd cbec 32be 207f c1bd 6af3 bb3c

conv1.bias f4 [6]
-0.5036246 -0.364557 -0.048495498 0.4527637 0.22868651 -0.31132433
00000000: 8bed 00bf 37a7 babe 37a3 46bd a5d0 e73e
00000010: cc2c 6a3e e765 9fbe

conv2.weight f4 [16, 6, 5, 5]
-0.15834455 -0.0007064539 -0.073504575 0.05795639 0.001983562 -0.11328928 -0.08654587 -0.095700905
0.019658137 0.03225576 -0.07436353 -0.044320505 -0.077390425 -0.104247294 -0.0071681906 -0.10995279
-0.14764905 -0.08950306 -0.17848936 -0.13456184 0.035753913 -0.012426898 -0.0067828884 -0.03277109
-0.110953085 -0.23098144 -0.10677643 -0.0879695 -0.19448148 -0.20222816 -0.12818386 -0.18030149
-0.16349587 -0.23740757 -0.14585234 -0.22456749 -0.21744256 -0.22528704 -0.14378138 -0.15956236
-0.17406848 -0.09670268 -0.18601866 -0.20121548 -0.070687726 -0.15275913 -0.11558166 -0.055037048
0.04810806 -0.14100876 -0.08702856 -0.13026008 -0.08205308 -0.018599827 -0.10601594 -0.03976365
-0.12688033 0.0038654667 -0.10454668 -0.032899015 -0.03442942 -0.00514425 -0.0047962023 -0.014808847
0.035931118 0.05250828 0.031540714 0.07651122 -0.003946366 -0.050934874 0.053647947 0.082364574
0.036876027 0.0621572 0.09796155 -0.009314838 -0.012175171 0.01677203 -0.023915514 0.08609169
0.07690334 -0.07901106 -0.025177289 -0.07759554 0.021431774 0.06693103 -0.036445796 -0.105520114
0.034661092 0.054826304 -0.006679609 0.11516425 0.08117111 -0.03136331 -0.021045325 0.1680261
0.16982783 0.21290615 0.15051806 0.20094061 0.016865067 -0.021942038 0.05213145 0.11901518
0.059749324 -0.021753559 0.057537194 0.07766986 -0.00096115534 0.042128503 0.050021186 -0.11004371
-0.06354872 -0.0030474449 -0.09326272 0.031730242 0.07872973 0.036748637 -0.048850402 0.016858412
0.04516005 0.09854793 0.09015008 0.13042359 0.1086554 -0.16432543 -0.117387414 -0.12564375
-0.16977483 -0.21935722 -0.124882095 -0.15347801 -0.10799252 -0.19770272 -0.22824164 0.0115136625
-0.070237644 -0.02550657 -0.0850275 -0.07072826 0.07018843 -0.04426054 0.0021940453 -0.030881815
0.07357138 0.19809964 0.17174836 0.15598008 0.10190132 0.15617806 -0.07238339 0.021822764
-0.000108342465 -0.009288354 -0.12772544 -0.0023504386 -0.022668742 -0.034362078 0.07231537 0.1143656
0.038912468 -0.010314359 0.049752813 -0.08254527 0.018029772 0.01015311 -0.023671089 -0.0385299
-0.031311493 -0.10103035 0.07324617 0.048552427 -0.063357525 -0.030052813 -0.1531486 0.0326684
0.096106 0.013428644 -0.033486515 -0.049937572 0.12566654 -0.038804136 0.122127496 -0.021919928
-0.055354696 0.20428438 0.1226107 0.029129945 -0.07237567 0.04193762 0.04068255 0.02461627
0.05857908 -0.07963717 -0.07333781 0.011501841 0.088254675 0.1982622 0.028885229 -0.061798356
-0.083341934 -0.090289794 -0.043101735 -0.030034633 -0.095637426 -0.13592276 -0.046806276 -0.038257208
-0.031793162 -0.029745951 -0.04685863 0.01276928 -0.119566366 -0.07926813 -0.055118646 0.017147098
-0.056513984 -0.113903515 -0.051786 -0.040061675 -0.020287776 0.071126394 -0.083742484 -0.12736793
-0.06721593 0.27291393 0.13033582 0.122922346 -0.06992121 -0.2580687 0.28796473 0.12299415
-0.016225494 -0.21256548 -0.33621082 0.29639375 0.00893143 -0.01436335 -0.18560041 -0.26735234
0.3220123 0.08960933 0.050093193 -0.11095981 -0.22531979 0.37989962 0.2622296 0.058514018
-0.020028738 -0.1839299 0.091624655 0.085695155 0.046111193 -0.078831665 -0.1250968 0.06549055
00000000: 1325 22be 5231 39ba 9189 96bd ae63 6d3d
00000010: a6fe 013b 3604 e8bd f63e b1bd d6fe c3bd
00000020: 1a0a a13c 9e1e 043d e84b 98bd 6b89 35bd
00000030: df7e 9ebd 9b7f d5bd 24e3 eabb ee2e e1bd
00000040: 5031 17be 614d b7bd eac5 36be 94ca 09be
00000050: b272 123d 309a 4bbc fe42 debb fa3a 06bd
00000060: 5f3b e3bd 6686 6cbe 9aad dabd 5a29 b4bd
00000070: 2726 47be e614 4fbe a142 03be f4a0 38be
00000080: 766b 27be f81a 73be 515a 15be 05f5 65be
00000090: 43a9 5ebe a5b1 66be 6d3b 13be 5164 23be
000000a0: 023f 32be 0e0c c6bd ad7b 3ebe 6e0b 4ebe
000000b0: bac4 90bd e46c 1cbe 14b6 ecbd 876e 61bd
000000c0: f50c 453d 9a64 10be 083c b2bd e662 05be
000000d0: 720b a8bd aa5e 98bc e31e d9bd 36df 22bd
000000e0: ebec 01be c553 7d3b 921c d6bd 1ec1 06bd
000000f0: dd05 0dbd 1991 a8bb 7629 9dbb cea0 72bc
00000100: 822c 133d ec12 573d d630 013d eab1 9c3d
00000110: 8450 81bb 16a1 50bd f3bd 5b3d c2ae a83d
00000120: 510b 173d 8c98 7e3d 11a0 c83d 439d 18bc
00000130: 5e7a 47bc 7f65 893c 78ea c3bc d750 b03d
00000140: 807f 9d3d 8dd0 a1bd 9a40 cebc 69ea 9ebd
00000150: b091 af3c 2313 893d 3048 15bd ee1a d8bd
00000160: caf8 0d3d 8c91 603d 9fe0 dabb 3cdb eb3d
00000170: 0a3d a63d d076 00bd 3f67 acbc 090f 2c3e
00000180: 59e7 2d3e 1204 5a3e 6821 1a3e 60c3 4d3e
00000190: 9c28 8a3c cabf b3bc ca87 553d 3bbe f33d
000001a0: b5bb 743d 8534 b2bc 1fac 6b3d 6011 9f3d
000001b0: 0bf6 7bba f08e 2c3d 04e3 4c3d 995e e1bd
000001c0: d525 82bd a4b7 47bb 8600 bfbd 92f7 013d
000001d0: 0d3d a13d bd85 163d 5c17 48bd a71a 8a3c
000001e0: bff9 383d 7fd3 c93d 9ba0 b83d c38d 053e
000001f0: b986 de3d ed44 28be d068 f0bd c1a8 00be
00000200: 74d9 2dbe 2e9f 60be 2fc2 ffbd 5729 1dbe
00000210: 2f2b ddbd 9572 4abe 2db8 69be cda3 3c3c
00000220: c1d8 8fbd 27f3 d0bc e622 aebd fad9 90bd
00000230: f4be 8f3d 8a4a 35bd f9c9 0f3b dcfb fcbc
00000240: 97ac 963d a2da 4a3e cdde 2f3e 3eb9 1f3e
00000250: a4b1 d03d 24ed 1f3e be3d 94bd a7c5 b23c
00000260: eb35 e3b8 2e2e 18bc 75ca 02be d109 1abb
00000270: ccb3 b9bc 40bf 0cbd 151a 943d 8338 ea3d
00000280: ae62 1f3d 8ffd 28bc 9bc9 4b3d 7f0d a9bd
00000290: 2cb3 933c 3b59 263c dfe9 c1bc 87d1 1dbd
000002a0: 7b40 00bd 00e9 cebd 1702 963d e9de 463d
000002b0: 97c1 81bd 5131 f6bc fdd2 1cbe 4dcf 053d
000002c0: 39d3 c43d d103 5c3c 2829 09bd 578b 4cbd
000002d0: bbae 003e 16f1 1ebd fb1d fa3d 6c91 b3bc
000002e0: 9bbb 62bd ed2f 513e 521b fb3d eca1 ee3c
000002f0: b239 94bd c8c6 2b3d bfa2 263d 0fa8 c93c
00000300: 9ef0 6f3d d018 a3bd 2232 96bd 3872 3c3c
00000310: debe b43d 3f05 4b3e b7a0 ec3c 4620 7dbd
00000320: 2daf aabd dbe9 b8bd 728b 30bd 310b f6bc
00000330: 8edd c3bd 562f 0bbe f0b7 3fbd 97b3 1cbd
00000340: 8c39 02bd c8ad f3bc d6ee 3fbd 3e36 513c
00000350: 36df f4bd 5457 a2bd 17c4 61bd 1278 8c3c
00000360: 357b 67bd 3f46 e9bd 8f1d 54bd b617 24bd
00000370: 8d32 a6bc b7aa 913d 2e81 abbd bd6c 02be
00000380: 81a8 89bd 60bb 8b3e c176 053e b6be fb3d
00000390: da32 8fbd 9521 84be 1d70 933e 5be4 fb3d
000003a0: 54eb 84bc c4aa 59be d323 acbe ecc0 973e
000003b0: 2255 123c 4254 6bbc 090e 3ebe 68e2 88be
000003c0: ccde a43e 1985 b73d 852e 4d3d e63e e3bd
000003d0: 3bba 66be 3482 c23e f542 863e 65ac 6f3d
000003e0: 4f13 a4bc 1f58 3cbe b5a5 bb3d f180 af3d
000003f0: 17df 3c3d 7f72 a1bd 6019 00be e91f 863d

conv2.bias f4 [16]
0.71794105 0.20457198 -0.04340347 0.7163507 0.20046528 -0.5296999 -0.009793017 0.37641385
0.1876069 -0.19465704 0.1955245 0.6367884 -0.615429 -0.50344974 -0.21869995 0.43099442
00000000: fcca 373f 517b 513e d6c7 31bd c262 373f
00000010: c546 4d3e 6a9a 07bf e472 20bc 51b9 c03e
00000020: 061c 403e 2d54 47be 9337 483e 9104 233f
00000030: c18c 1dbf 15e2 00bf e1f2 5fbe 4dab dc3e

fc1.weight f4 [120, 400]
-0.045032762 0.030579587 0.0067398716 0.026388424 -0.042415675 -0.019466883 0.036432866 -0.011698125
0.03232695 -0.037192576 -0.0017024109 -0.018561097 -0.042704053 0.024693202 0.03325418 -0.015961898
-0.035745613 0.042711325 0.03937404 0.032020796 0.030649126 0.012898942 0.04772973 0.010149046
0.021582251 -0.038348626 0.03316291 -0.0042389543 -0.044536717 0.02907818 0.008819275 -0.0059266468
-0.043792155 -0.04711431 0.0065618036 -0.024250107 -0.032832216 0.007964457 -0.042755153 0.016376121
-0.0010783044 -0.0030086797 -0.05476125 -0.025961123 0.038734663 -0.018196 0.01851028 -0.0072820797
-0.020846535 -0.047228772 -0.044385552 0.003236936 0.02303607 0.04441216 -0.047411684 -0.0226093
0.034078162 -0.025493199 0.015982604 -0.03871729 0.009048517 -0.013465773 -0.04465007 -0.0445503
-0.03701714 0.04659194 0.025044985 0.0019441072 -0.04935747 0.0048325243 0.013674099 -0.0046678525
0.0026049602 -0.034199394 0.030316504 0.006826397 -0.042144585 -0.024686603 -0.001977948 -0.029307077
0.03802573 -0.03835896 0.0142503055 0.011458847 0.026547786 0.019162089 -0.038411442 0.025096707
0.042100027 -0.010601689 -0.0008909562 -0.05739511 0.047029153 0.0013287739 0.018014668 -0.038831636
-0.010528261 0.06307647 0.011291901 0.040001508 0.015282803 -0.03985672 -0.023774182 0.0030008534
0.026177652 0.01922581 -0.019012304 0.03462486 -0.019459484 -0.021223273 -0.0027368714 -0.03359766
-0.026517482 -0.026245916 -0.0077382596 0.037442926 -0.034691606 -0.042496108 -0.044419654 -0.030489415
0.009976174 0.02740325 -0.01801053 0.04062652 -0.04254743 0.010374327 -0.03355505 0.00027559843
0.026863229 0.002331562 0.031190999 -0.04372635 -0.021225443 0.0077247154 0.02020981 -0.009315938
-0.050233096 0.011742364 -0.04543168 -0.017336033 0.025759082 0.026353553 -0.03999578 -0.030315945
-0.014727253 -0.038232066 -0.024527105 -0.03426677 0.016587822 -0.022062963 -0.033885248 0.035765026
0.039508265 -0.059109937 -0.0058564297 0.009495844 0.04649056 -0.022019142 0.03873282 -0.02371093
-0.025174346 -0.046084777 0.010616012 -0.04442946 -0.01158056 0.042009003 0.00854506 0.034373723
-0.05815014 0.031022305 -0.038050998 0.009930522 -0.004996299 -0.014469996 -0.05382654 -0.0024526059
-0.020450702 0.01855826 -0.029188514 0.0011874018 -0.008545388 -0.00880535 -0.013210009 -0.020209428
-0.009937724 -0.014926946 -0.016580576 -0.03618859 -0.052281134 -0.011156909 0.0047996566 -0.04817083
0.01914386 0.033102047 0.033779364 0.051576212 0.03343169 -0.028868288 0.033377726 0.045465186
0.0074118176 -0.010358475 -0.0059008375 0.022747781 -0.033533875 -0.035228387 -0.023786357 0.034280386
0.044372957 -0.027301949 -0.053790536 -0.025058907 0.043529242 0.02347 -0.038864333 -0.011925505
-0.05069178 -0.00032783707 0.037655737 0.021108283 0.026524022 0.015036564 -0.0060414355 0.035095505
-0.000385811 -0.007190673 -0.00548962 0.044119462 0.03847758 0.011475181 0.013474077 0.009764577
-0.038322914 0.027733907 0.0068573128 0.033668555 -0.0067927563 -0.009082424 0.010023606 0.03203689
0.029507782 -0.02721943 0.033266876 -0.04360646 -0.020964794 0.020683248 -0.01322433 -0.005131873
0.013959674 -0.028616918 -0.019409249 -0.006083746 -0.04365404 -0.02766967 0.031019226 -0.0029083758
00000000: 4674 38bd 0b82 fa3c 24da dc3b 892c d83c
00000010: 0fbc 2dbd 0379 9fbc a13a 153d 7ea9 3fbc
00000020: 4469 043d 3e57 18bd 6e23 dfba 710d 98bc
00000030: 72ea 2ebd 6649 ca3c 8935 083d 87c2 82bc
00000040: fe69 12bd 12f2 2e3d ac46 213d 3d28 033d
00000050: e013 fb3c 1656 533c 4080 433d 2f48 263c
00000060: 43cd b03c 7313 1dbd d5d5 073d ede6 8abb
00000070: 226c 36bd 5d35 ee3c b87e 103c 5134 c2bb
00000080: 675f 33bd effa 40bd 6604 d73b 29a8 c6bc
00000090: 137b 06bd 5b7d 023c 0720 2fbd 3727 863c
000000a0: e455 8dba 452d 45bb 554d 60bd 6cac d4bc
000000b0: 3da8 1e3d c70f 95bc dfa2 973c 839e eebb
000000c0: 5ac6 aabc f572 41bd a0cd 35bd c622 543b
000000d0: 24b6 bc3c 86e9 353d c132 42bd 2437 b9bc
000000e0: 8b95 0b3d 1dd7 d0bc f3ed 823c 0596 1ebd
000000f0: 3b40 143c 8c9f 5cbc fee2 36bd 607a 36bd
00000100: 499f 17bd 31d7 3e3d 242b cd3c 6ad1 fe3a
00000110: 0f2b 4abd 275a 9e3b 5409 603c c9f4 98bb
00000120: fbb7 2a3b aa14 0cbd 515a f83c f8af df3b
00000130: cd9f 2cbd 8f3b cabc 76a0 01bb 6515 f0bc
00000140: dec0 1b3d 491e 1dbd 1d7a 693c e3bd 3b3c
00000150: be7a d93c d0f9 9c3c 5155 1dbd 9c97 cd3c
00000160: 1471 2c3d b5b2 2dbc 0f8f 69ba 2317 6bbd
00000170: a4a1 403d 412a ae3a 7f93 933c ec0d 1fbd
00000180: ba7e 2cbc 3c2e 813d aa01 393c 9fd8 233d
00000190: b964 7a3c cd40 23bd 13c2 c2bc f7a9 443b
000001a0: 8472 d63c 727f 9d3c b1bf 9bbc ccd2 0d3d
000001b0: 7f69 9fbc 6edc adbc 155d 33bb b39d 09bd
000001c0: 313b d9bc ad01 d7bc 3a91 fdbb c15d 193d
000001d0: c918 0ebd 6610 2ebd 62f1 35bd f0c4 f9bc
000001e0: 1b73 233c c87c e03c d28a 93bc fe67 263d
000001f0: 3746 2ebd 15f9 293c 0571 09bd 327e 9039
00000200: 4610 dc3c 1fcd 183b 4484 ff3c 671a 33bd
00000210: fbe0 adbc 9c1f fd3b 0b8f a53c e0a1 18bc
00000220: 38c1 4dbd 0b63 403c 9216 3abd 4c04 8ebc
00000230: b604 d33c 68e3 d73c 9dd2 23bd 2559 f8bc
00000240: 934a 71bc 3a99 1cbd 11ed c8bc 505b 0cbd
00000250: 2fe3 873c 63bd b4bc 42cb 0abd 597e 123d
00000260: 6bd3 213d 431d 72bd 4be7 bfbb 7594 1b3c
00000270: e36c 3e3d 7d61 b4bc 4ea6 1e3d 6d3d c2bc
00000280: 6e3a cebc 64c3 3cbd c8ee 2d3c aafb 35bd
00000290: 64bc 3dbc a211 2c3d 9400 0c3c 76cb 0c3d
000002a0: d72e 6ebd 7d22 fe3c 5ddb 1bbd a1b3 223c
000002b0: feb7 a3bb 9013 6dbc 3879 5cbd e6bb 20bb
000002c0: 3b88 a7bc 7e07 983c c01c efbc 98a2 9b3a
000002d0: f401 0cbc 5144 10bc cb6e 58bc 3e8e a5bc
000002e0: d6d1 22bc 2690 74bc fdd3 87bc 7d3a 14bd
000002f0: be24 56bd 78cb 36bc 7046 9d3b c74e 45bd
00000300: 96d3 9c3c 0396 073d 3b5c 0a3d 9441 533d
00000310: abef 083d 307d ecbc 15b7 083d b439 3a3d
00000320: d5de f23b 98b6 29bc d05b c1bb 8e59 ba3c
00000330: d15a 09bd a44b 10bd 9bdb c2bc 9769 0c3d
00000340: 6bc0 353d 56a8 dfbc 7753 5cbd 5648 cdbc
00000350: b84b 323d 2844 c03c 3530 1fbd 3163 43bc
00000360: 2fa2 4fbd 8ce1 abb9 e73c 1a3d 47eb ac3c
00000370: e848 d93c ec5b 763c 3cf7 c5bb 4ec0 0f3d
00000380: ad46 cab9 bd9f ebbb 45e2 b3bb 9cb6 343d
00000390: ab9a 1d3d 6602 3c3c 60c2 5c3c 9bfb 1f3c
000003a0: 7df8 1cbd 3832 e33c 4fb3 e03b 0ae8 093d
000003b0: c595 debb 73ce 14bc 0d3a 243c 1d39 033d
000003c0: 4eba f13c 48fb debc d942 083d b09c 32bd
000003d0: 5cbe abbc ea6f a93c dcaa 58bc 4529 a8bb
000003e0: 1eb7 643c 076e eabc 2500 9fbc 295a c7bb
000003f0: 94ce 32bd 81ab e2bc 081c fe3c 739a 3ebb

fc1.bias f4 [120]
-0.013338936 0.011741695 0.10353119 -0.06441273 -0.02369537 0.04025152 0.118311346 -0.10357812
0.15888941 -0.008384148 0.07861422 0.08192892 0.025922263 0.032032024 -0.0011697462 -0.048738845
-0.058883633 0.009510354 -0.0054788087 -0.12539262 -0.03729242 0.0789343 -0.009895797 -0.11589414
-0.02527634 0.0069798636 0.042604115 0.0530737 0.0068313046 -0.018644018 0.100844614 0.041163657
-0.024291 0.132349 -0.027066367 0.08463684 -0.016740324 0.028466133 -0.046643365 -0.08141601
-0.028046561 0.011165576 0.0119634615 0.0003686464 0.008595579 0.018414866 -0.01639198 -0.09768255
-0.01692138 -0.007469247 -0.051176127 0.0058698175 -0.03343993 0.0153210275 0.11035541 0.1214679
0.037582092 -0.1405563 0.17769074 -0.06055021 0.18411168 0.07912654 0.08037516 0.0039048358
0.063429676 0.01919323 0.10571968 -0.0367939 0.32294345 -0.05059599 0.044932395 -0.0057426537
0.025472997 -0.0636088 0.086245716 0.084359124 -0.03310339 0.0033882074 -0.017396074 -0.04312566
0.16968408 -0.052467108 0.026625382 -0.121330656 -0.042046983 0.00092826993 0.124092996 0.055690993
0.07226785 0.0027340446 -0.005833314 -0.018067712 -0.02145308 -0.038053125 0.015509336 -0.042635854
-0.014394466 0.15689935 0.12188462 0.011398275 0.021877108 0.025712015 -0.010523412 -0.029322373
-0.006033766 0.045035005 0.039243758 0.03055744 0.054796968 0.05232466 -0.06494634 0.13780156
0.024286246 0.124748364 0.009478777 -0.0072693382 0.0035741704 -0.036149334 0.035570048 0.010955265
00000000: 8d8b 5abc 3d60 403c 2908 d43d d2ea 83bd
00000010: cb1c c2bc c7de 243d 384d f23d c420 d4bd
00000020: e8b3 223e aa5d 09bc 7e00 a13d 59ca a73d
00000030: ed5a d43c 0334 033d 2b52 99ba 62a2 47bd
00000040: f72f 71bd 51d1 1b3c 9487 b3bb ec66 00be
00000050: f0bf 18bd 4ea8 a13d fb21 22bc e859 edbd
00000060: 5410 cfbc 57b7 e43b a781 2e3d cf63 593d
00000070: 23d9 df3b 57bb 98bc 9f87 ce3d 399b 283d
00000080: ebfd c6bc 7f86 073e 49ba ddbc 1456 ad3d
00000090: 0123 89bc cf31 e93c 1d0d 3fbd 70bd a6bd
000000a0: e7c1 e5bc d2ef 363c 6502 443c e246 c139
000000b0: 79d4 0c3c c6da 963c 7948 86bc ca0d c8bd
000000c0: b59e 8abc 96c0 f4bb 0f9e 51bd 9957 c03b
000000d0: 4ff8 08bd 0c05 7b3c 0402 e23d 2ac4 f83d
000000e0: aeef 193d feed 0fbe 90f4 353e 7f03 78bd
000000f0: c687 3c3e 180d a23d bb9b a43d 46e8 7f3b
00000100: 6be7 813d 1f3b 9d3c 8f83 d83d 33b5 16bd
00000110: d858 a53e be3d 4fbd 080b 383d df2c bcbb
00000120: bfac d03c 5545 82bd 98a1 b03d 7ac4 ac3d
00000130: 6c97 07bd b00c 5e3b 3682 8ebc 88a4 30bd
00000140: aac1 2d3e c0e7 56bd 791d da3c 357c f8bd
00000150: 7539 2cbd 2457 733a 7824 fe3d 3d1c 643d
00000160: 2b01 943d a82d 333b 6225 bfbb bd02 94bc
00000170: 5fbe afbc 98dd 1bbd df1a 7e3c efa2 2ebd
00000180: c4d6 6bbc 39aa 203e a59e f93d d5bf 3a3c
00000190: 9f37 b33c 01a2 d23c 646a 2cbc 7935 f0bc
000001a0: e6b6 c5bb a076 383d 10be 203d 9953 fa3c
000001b0: c972 603d 6252 563d 9602 85bd da1b 0d3e
000001c0: f3f3 c63c 127c ff3d df4c 1b3c a133 eebb
000001d0: a13c 6a3b 5311 14bd e6b1 113d b67d 333c

fc2.weight f4 [84, 120]
0.029233728 -0.06596765 -0.07670685 0.05038888 -0.00026825152 -0.0065798736 0.025514701 -0.060446933
-0.0630792 0.041229166 -0.08106843 -0.05995151 -0.09434637 -0.06253198 0.077332154 -0.029559579
0.07039159 0.018508228 0.07710298 -0.0016636037 -0.062483814 0.028409133 -0.03847475 0.110703036
0.0073776604 0.06809442 -0.0839532 0.00709709 -0.059136797 0.07178013 -0.02819669 -0.0394368
-0.026816161 0.035127614 -0.039032716 -0.07013767 -0.03892641 -0.069389775 0.0716608 0.10682196
0.08395664 -0.064190514 -0.078110136 -0.02199061 -0.03866326 -0.068183415 0.03637613 0.07552855
0.08442028 0.08401568 -0.054365903 -0.06374839 0.085501954 0.055212844 0.0019670003 0.08483462
0.038426317 -0.052923027 -0.021826187 -0.036636066 0.023980204 -0.05125862 0.041066725 -0.05640942
-0.07751717 -0.11718038 -0.02387319 -0.060276926 -0.015510182 -0.02521575 -0.09524357 0.019478295
0.1154878 0.009787419 0.046320383 0.05434519 -0.018802105 0.0038051973 0.05904747 -0.08523463
-0.028331272 -0.08706283 -0.08533669 -0.01714755 0.013516451 0.11756168 0.06273085 0.054614577
-0.07988424 -0.01824193 0.023974517 -0.09113651 -0.010956647 -0.07706904 0.015533043 0.106065914
0.06553134 -0.05083527 -0.0400881 -0.026235063 0.013248674 -0.048365213 0.07795742 -0.08916239
0.06529029 -0.044468597 -0.03447703 -0.0026441964 0.15543741 -0.015923036 -0.028528588 0.035169397
-0.05034114 0.008180533 0.04243918 0.05855876 -0.021050543 0.004718612 0.009544328 -0.024758287
0.042749714 -0.08823197 -0.09473359 0.04924431 -0.018091492 0.044523817 0.092608556 0.020816611
0.062003475 0.019369083 -0.027297044 0.03278705 -0.08174492 0.06831556 0.16713706 -0.1307745
-0.06924432 -0.1306813 0.006082796 0.010539255 0.08703402 -0.019305037 0.024111245 -0.00986857
-0.07516433 -0.10588328 -0.013282915 0.023217866 -0.011813742 0.08273326 -0.1258804 0.053130817
0.0026380208 -0.0011612196 0.025045402 0.03803613 0.03263763 0.08640771 0.054503918 0.1375423
0.0525079 -0.011625773 0.04900253 0.117812775 -0.053720284 -0.05565192 -0.035361957 0.03860358
-0.031375084 0.026994487 0.010217154 -0.06721017 -0.06616356 -0.05088118 -0.061628204 -0.05638532
-0.014969902 -0.079158865 -0.114562444 -0.12658048 -0.0050175595 -0.046576817 -0.1105936 0.026281133
-0.005993341 0.11336553 0.03669664 -0.038950272 0.13807473 0.0859174 0.06049653 0.08103578
0.062182967 0.00173619 -0.12286478 -0.0007223304 -0.07319781 -0.07704785 0.015717255 -0.022349041
0.09838181 0.10223083 -0.016572872 -0.05499697 -0.06946829 -0.037882198 0.00014647498 0.023214124
0.09039723 0.005436802 0.09085909 0.028165223 -0.09181731 0.13874891 0.02241306 0.06759422
0.09324725 -0.14259942 -0.069249816 0.06945562 -0.001702554 0.049878817 0.066045344 -0.08860296
0.02293346 0.029393453 -0.039662946 0.019425305 0.12590882 0.09929072 -0.059096944 0.030972412
-0.056645583 0.043558344 -0.047136813 -0.07030851 -0.03574406 0.045347895 -0.023205843 -0.03823334
0.07886516 0.07450426 0.04223472 -0.0763421 -0.086904824 -0.06140371 -0.07204841 -0.009542428
0.001960199 -0.074935526 -0.086424306 -0.0025962794 -0.019876838 -0.019634254 -0.077114806 0.00956085
00000000: 927b ef3c 0c1a 87bd 7b18 9dbd 9264 4e3d
00000010: 1ca4 8cb9 fb9b d7bb 3504 d13c 3497 77bd
00000020: ab2f 81bd eadf 283d 3407 a6bd b78f 75bd
00000030: ab38 c1bd c410 80bd 5260 9e3d ee26 f2bc
00000040: 7729 903d 919e 973c 2be8 9d3d 470d daba
00000050: 07ef 7fbd 45ba e83c b397 1dbd 46b8 e23d
00000060: 4dc0 f13b 1675 8b3d a8ef abbd b58e e83b
00000070: 6d39 72bd 7601 933d bffc e6bc 7b88 21bd
00000080: 91ad dbbc f9e1 0f3d c5e0 1fbd 57a4 8fbd
00000090: 4d71 1fbd 3a1c 8ebd e6c2 923d 79c5 da3d
000000a0: 75f1 ab3d 5176 83bd 35f8 9fbd a725 b4bc
000000b0: 5e5d 1ebd bfa3 8bbd 23ff 143d b6ae 9a3d
000000c0: 8ae4 ac3d 6a10 ac3d c8ae 5ebd 848e 82bd
000000d0: a61b af3d dd26 623d cae8 003b c6bd ad3d
000000e0: ea64 1d3d d1c5 58bd d5cc b2bc b30f 16bd
000000f0: 2272 c43c 8ff4 51bd 9535 283d 900d 67bd
00000100: 52c1 9ebd 44fc efbd b591 c3bc f0e4 76bd
00000110: 6b1e 7ebc 4391 cebc 100f c3bd f290 9f3c
00000120: de84 ec3d 695b 203c 71ba 3d3d 1099 5e3d
00000130: df06 9abc 9e60 793b c3db 713d 7e8f aebd
00000140: fc16 e8bc ff4d b2bd 01c5 aebd 0579 8cbc
00000150: 1b74 5d3c 2ec4 f03d 0879 803d 89b3 5f3d
00000160: 599a a3bd 1a70 95bc 3566 c43c c7a5 babd
00000170: 8283 33bc 5fd6 9dbd 4e7e 7e3c 1639 d93d
00000180: 4c35 863d a538 50bd 6b33 24bd eaea d6bc
00000190: f710 593c 9a1a 46bd 24a8 9f3d c59a b6bd
000001a0: eab6 853d b424 36bd c937 0dbd 414a 2dbb
000001b0: fc2a 1f3e 0771 82bc c9b4 e9bc c90d 103d
000001c0: 8332 4ebd a407 063c b5d4 2d3d 4fdb 6f3d
000001d0: 3072 acbc 969e 9a3b d05f 1c3c e4d1 cabc
000001e0: 531a 2f3d f7b2 b4bd af03 c2bd 67b4 493d
000001f0: 9c34 94bc 9b5e 363d 8ea9 bd3d 9987 aa3c
00000200: 5bf7 7d3d e9ab 9e3c 0d9e dfbc b74b 063d
00000210: e169 a7bd 07e9 8b3d fa25 2b3e c0e9 05be
00000220: f7cf 8dbd 52d1 05be 3152 c73b d7ac 2c3c
00000230: e43e b23d 9925 9ebc f284 c53c c8af 21bc
00000240: c2ef 99bd 55d9 d8bd 95a0 59bc 6533 be3c
00000250: 6d8e 41bc 0e70 a93d cbe6 00be b39f 593d
00000260: a5e2 2c3b 1034 98ba 042c cd3c c6cb 1b3d
00000270: 09af 053d 87f6 b03d 803f 5f3d e4d7 0c3e
00000280: 8612 573d 077a 3ebc e0b6 483d d347 f13d
00000290: cd09 5cbd 45f3 63bd b3d7 10bd ca1e 1e3d
000002a0: 2983 00bd 8b23 dd3c da65 273c 7ca5 89bd
000002b0: c380 87bd c968 50bd db6d 7cbd 4bf4 66bd
000002c0: 5244 75bc 0b1e a2bd b79f eabd 509e 01be
000002d0: 576a a4bb 55c7 3ebd e67e e2bd 884b d73c
000002e0: ca63 c4bb 302c e83d 374f 163d 528a 1fbd
000002f0: 7663 0d3e 76f5 af3d 36cb 773d 16f6 a53d
00000300: 91b3 7e3d df90 e33a 88a0 fbbd c65a 3dba
00000310: bce8 95bd 43cb 9dbd 79c1 803c 5615 b7bc
00000320: 677c c93d 665e d13d d5c3 87bc 8144 61bd
00000330: 6445 8ebd 5d2a 1bbd 1497 1939 8c2b be3c
00000340: 2f22 b93d 3327 b23b 5514 ba3d c1ba e63c
00000350: b70a bcbd 3214 0e3e 989b b73c d76e 8a3d
00000360: 6af8 be3d 9505 12be d9d2 8dbd c03e 8e3d
00000370: 3b28 dfba bb4d 4c3d c842 873d 7875 b5bd
00000380: f4de bb3c 8aca f03c 9d75 22bd d121 9f3c
00000390: 3eee 003e ef58 cb3d a30f 72bd dbb9 fd3c
000003a0: 3305 68bd 3c6a 323d 8812 41bd e8fd 8fbd
000003b0: 5d68 12bd b7be 393d 2e1a bebc 909a 1cbd
000003c0: 0f84 a13d b195 983d 50fe 2c3d 3f59 9cbd
000003d0: 28fb b1bd 7582 7bbd 1e8e 93bd d857 1cbc
000003e0: af76 003b cc77 99bd 3aff b0bd 5726 2abb
000003f0: c0d4 a2bc 04d8 a0bc 5eee 9dbd 1da5 1c3c

fc2.bias f4 [84]
-0.06929668 0.17062207 -0.10094032 0.08188083 -0.0409417 0.011047184 0.11379122 -0.006229978
0.14058693 0.371962 0.042460505 -0.12987019 0.07098902 0.08801799 -0.036899053 0.09261462
-0.16436034 -0.06992538 0.10360649 -0.012366222 0.1933713 0.007806879 0.23471585 0.08877618
-0.23061983 -0.017997922 0.014147171 -0.059294015 -0.10587553 -0.048467107 -0.030674893 0.07668182
-0.018706692 -0.12531106 -0.08402022 0.16833813 -0.10024769 0.0039759534 0.03240461 -0.014169254
0.058213513 0.17687534 0.12266058 0.15255085 0.40166518 0.15047003 -0.002534759 0.21432668
-0.018974043 -0.039044566 -0.0861235 -0.08347195 0.1237937 -0.017784769 0.18431422 -0.04848224
0.026111525 0.14937797 0.13390565 -0.049654685 0.23618665 -0.009289873 -0.056744084 0.16447127
-0.026740117 0.016587013 0.08793622 -0.064659216 0.0029369984 0.05031174 -0.086240344 0.4003612
-0.11623323 0.037487082 0.16719072 0.2763345 0.07952663 0.07968168 0.12825045 0.1067283
-0.048093926 -0.019918868 -0.02100937 0.062267654
00000000: 6beb 8dbd 8db7 2e3e ccb9 cebd 23b1 a73d
00000010: 7cb2 27bd 3fff 343c 5f0b e93d d824 ccbb
00000020: 05f6 0f3e ce71 be3e 11eb 2d3d b1fc 04be
00000030: b162 913d c742 b43d 7623 17bd bcac bd3d
00000040: 144e 28be 0a35 8fbd a42f d43d b29b 4abc
00000050: 2003 463e d9d0 ff3b 5a59 703e 49d0 b53d
00000060: 9b27 6cbe 6170 93bc 89c9 673c 48de 72bd
00000070: 45d5 d8bd 7285 46bd ea49 fbbc 5c0b 9d3d
00000080: c73e 99bc 8b51 00be cb12 acbd d560 2c3e
00000090: a94e cdbd b748 823b b2ba 043d 2926 68bc
000000a0: 4b71 6e3d cf1e 353e 7835 fb3d 4a36 1c3e
000000b0: 0fa7 cd3e d114 1a3e 331e 26bb 7478 5b3e
000000c0: 746f 9bbc 32ed 1fbd 8461 b0bd 57f3 aabd
000000d0: 8d87 fd3d 5db1 91bc debc 3c3e 5095 46bd
000000e0: d6e7 d53c 8af6 183e 901e 093e b662 4bbd
000000f0: eada 713e 8d34 18bc 7c6c 68bd 286b 283e
00000100: 170e dbbc 7de1 873c e817 b43d 0d6c 84bd
00000110: a87a 403b af13 4e3d c79e b0bd 25fc cc3e
00000120: b00b eebd 0e8c 193d 0b34 2b3e b77b 8d3e
00000130: dcde a23d 2630 a33d 1654 033e 5e94 da3d
00000140: 23fe 44bd e52c a3bc d81b acbc 5e0c 7f3d

fc3.weight f4 [10, 84]
-0.05231476 -0.3195742 -0.09996454 -0.039828114 0.24629408 0.10640565 0.17216301 -0.05225798
0.15089 0.028916702 0.25816196 0.025135973 0.014054441 -0.106442474 0.011766745 0.18753284
0.15023065 0.047471274 -0.041621856 0.0277174 0.25011867 0.116389036 -0.25791836 0.039100185
0.034726474 -0.07859222 -0.060381386 -0.008671344 0.04248322 0.033060376 -0.0046196165 0.028393202
0.20309556 0.048672665 -0.053330157 0.049999073 -0.060110047 -0.14279631 -0.14017993 0.051345296
0.082649924 0.20852292 -0.007337004 0.17688233 -0.23190111 -0.10464591 0.10433529 0.094720565
0.043995 -0.017556561 0.053460337 0.09598902 0.011831786 0.061259467 0.021926466 -0.044172734
-0.08996498 0.29661304 -0.076236136 -0.16459557 0.096138835 0.10651076 0.14364454 -0.20119958
0.022956321 0.053628407 -0.1289448 0.11675775 -0.10975809 -0.11125985 0.08016065 -0.30862015
-0.09225719 0.18774918 0.19412024 -0.036456864 -0.083162785 -0.1653581 -0.09751694 0.050641093
0.20359205 -0.043880865 -0.0063808383 0.19572203 -0.12205861 -0.049043354 0.014878426 -0.120139934
0.27743152 0.08083542 -0.15509164 -0.06213424 -0.26172343 -0.19991878 -0.14162321 0.14988816
-0.0866285 0.14408818 -0.029954387 -0.11982098 -0.060380325 -0.02021264 -0.048627846 -0.19673784
-0.06754074 0.0032069974 -0.02846049 -0.029922618 0.29548204 -0.0664668 -0.106123894 0.16598177
-0.027647818 0.21411972 0.13027163 0.18398158 -0.17227922 -0.08423372 0.12115869 -0.18179351
0.10006465 -0.12671399 0.21119313 0.020806907 -0.10421517 -0.121824205 -0.110885546 -0.19288133
-0.3422367 -0.14373784 -0.13133061 -0.24871887 -0.030519843 -0.09459701 0.17189525 0.2146415
-0.10012404 0.11669058 -0.100030355 -0.111392856 -0.07916016 -0.097478695 -0.179904 -0.016968377
-0.024893003 0.07204341 0.011214364 0.024330718 0.0151145635 0.027582576 -0.2587509 0.24045548
0.1307713 0.07318216 0.0839584 0.010349224 0.10891195 0.017986007 0.114120916 -0.0065094414
0.1323363 -0.11698808 -0.19632626 -0.18494049 0.35962397 0.07221136 0.1673662 0.008620532
-0.11550131 -0.051212583 -0.08764498 0.072054535 -0.011644314 -0.09075343 0.05418544 -0.02667951
0.031596314 0.2755596 0.13916314 0.093793765 0.17658961 -0.1202354 0.07780934 0.055033535
0.0935308 -0.06934418 0.028978802 0.20471106 0.2068689 -0.011758093 0.1015506 -0.056354344
-0.10916211 -0.049421106 -0.18822289 -0.014745495 0.08651587 0.055519335 0.09819641 -0.22097254
0.09445737 -0.18639766 -0.16977113 0.014917306 0.05459087 -0.09768479 -0.019985868 0.027178345
-0.02867504 -0.020898221 -0.008866384 0.01725409 0.1391433 0.23378521 0.062467366 0.034922402
-0.014306404 0.03367458 -0.14850779 -0.0036744995 0.16142866 -0.104893334 0.06808747 0.0909828
-0.105608284 0.26550302 0.308802 -0.22378051 -0.124986716 -0.14336136 -0.15556662 -0.14418551
-0.14224014 0.1573046 0.19413288 0.042394135 0.0812551 0.15980811 0.028980311 0.011864028
0.09248793 0.12729262 0.046998154 0.20531137 -0.11434526 -0.042500257 -0.06924037 0.16673505
-0.24428684 0.11697264 -0.15663189 0.16123067 0.0055096494 0.11640578 0.08326905 0.051715065
00000000: 0048 56bd 3b9f a3be 35ba ccbd ce22 23bd
00000010: 8434 7c3e 35eb d93d 804b 303e 770c 56bd
00000020: e882 1a3e b8e2 ec3c ce2d 843e f5e9 cd3c
00000030: 9944 663c 83fe d9bd 4ec9 403c 9c08 403e
00000040: 10d6 193e 3d71 423d ae7b 2abd 9a0f e33c
00000050: 8e0f 803e 605d ee3d e00d 84be 8427 203d
00000060: 593d 0e3d f5f4 a0bd 7952 77bd 4112 0ebc
00000070: e302 2e3d 516a 073d 2760 97bb dc98 e83c
00000080: 48f8 4f3e fd5c 473d b970 5abd d4cb 4c3d
00000090: f435 76bd 3239 12be 548b 0fbe 724f 523d
000000a0: 5d44 a93d 0887 553e 406b f0bb a420 353e
000000b0: 7c77 6dbe 9850 d6bd bead d53d dbfc c13d
000000c0: 1a34 343d c7d2 8fbc 3af9 5a3d e495 c43d
000000d0: 1bda 413c 35eb 7a3d 229f b33c 78ee 34bd
000000e0: 8f3f b8bd aadd 973e b121 9cbd be8b 28be
000000f0: 70e4 c43d 5022 da3d 8e17 133e 4307 4ebe
00000100: e50e bc3c 76a9 5b3d 1b0a 04be b01e ef3d
00000110: d9c8 e0bd 34dc e3bd 442b a43d 7603 9ebe
00000120: 56f1 bcbd 5241 403e 75c7 463e cb53 15bd
00000130: 4051 aabd a253 29be f6b6 c7bd 096d 4f3d
00000140: 6f7a 503e 6cbc 33bd 5a16 d1bb 5b6b 483e
00000150: ddf9 f9bd afe1 48bd a4c4 733c ed0b f6bd
00000160: 810b 8e3e 0a8d a53d 58d0 1ebe 7980 7ebd
00000170: 9d00 86be 82b7 4cbe ad05 11be 487c 193e
00000180: 486a b1bd da8b 133e e762 f5bc b464 f5bd
00000190: 5c51 77bd fa94 a5bc fe2d 47bd a575 49be
000001a0: cd52 8abd 7d2c 523b f925 e9bc 4720 f5bc
000001b0: 6c49 973e bf1f 88bd 7c57 d9bd 20f7 293e
000001c0: ad7d e2bc 3342 5b3e ed65 053e ab65 3c3e
000001d0: f769 30be bb82 acbd 0c22 f83d 1428 3abe
000001e0: b2ee cc3d 50c1 01be 0343 583e 3f73 aa3c
000001f0: c36e d5bd f87e f9bd f617 e3bd af82 45be
00000200: a639 afbe 0330 13be 887b 06be 29b0 7ebe
00000210: c004 fabc 14bc c1bd 4f05 303e fbca 5b3e
00000220: d50d cdbd 79fb ee3d b7dc ccbd f021 e4bd
00000230: b91e a2bd e9a2 c7bd c138 38be 4401 8bbc
00000240: 69ec cbbc 7f8b 933d 74bc 373c 3751 c73c
00000250: 13a3 773c dbf4 e13c ff7a 84be f639 763e
00000260: e9e8 053e 87e0 953d 62f2 ab3d cb8f 293c
00000270: 3a0d df3d 6457 933c 3ab8 e93d 274d d5bb
00000280: 2b83 073e 7297 efbd c009 49be 0a61 3dbe
00000290: a220 b83e 8de3 933d 0c62 2b3e 223d 0d3c
000002a0: f38b ecbd 49c4 51bd 367f b3bd 5491 933d
000002b0: cbc7 3ebc efdc b9bd 8df1 5d3d fd8e dabc
000002c0: 236b 013d 2616 8d3e c880 0e3e f216 c03d
000002d0: e8d3 343e fa3d f6bd 815a 9f3d d86a 613d
000002e0: 138d bf3d 5204 8ebd f464 ed3c c79f 513e
000002f0: 71d5 533e 04a5 40bc c3f9 cf3d d0d3 66bd
00000300: 6290 dfbd c96d 4abd 80bd 40be 1797 71bc
00000310: 3c2f b13d 3e68 633d 331b c93d a046 62be
00000320: de72 c13d 07df 3ebe 7cd8 2dbe b767 743c
00000330: ad9a 5f3d f70e c8bd 67b9 a3bc 1fa5 de3c
00000340: ebe7 eabc bf32 abbc 4f44 11bc 7358 8d3c
00000350: 957b 0e3e 6465 6f3e c8dd 7f3d cb0a 0f3d
00000360: 6865 6abc 5bee 093d 6d12 18be dfcf 70bb
00000370: 8e4d 253e 51d2 d6bd 7271 8b3d 3155 ba3d
00000380: 2849 d8bd 03f0 873e 4c1b 9e3e b826 65be
00000390: 09f9 ffbd 52cd 12be db4c 1fbe 5ea5 13be
000003a0: 66a7 11be 7514 213e c5ca 463e 79a5 2d3d
000003b0: 1369 a63d bda4 233e 1e68 ed3c 5761 423c
000003c0: 506a bd3d ff58 023e 2381 403d 253d 523e
000003d0: d92d eabd c014 2ebd e5cd 8dbd 98bc 2a3e
000003e0: 5426 7abe 5a8f ef3d 1c64 20be a719 253e
000003f0: 4a8a b43b 2766 ee3d f788 aa3d 2dd3 533d

fc3.bias f4 [10]
-0.351995 -0.5149237 0.026811453 0.39839005 0.45363212 -0.0109366 0.051357865 -0.20522974
0.2314556 -0.30744192
00000000: b038 b4be 0ad2 03bf b1a3 db3c c8f9 cb3e
00000010: 7842 e83e 6d2f 33bc a05c 523d bf27 52be
00000020: b202 6d3e 0769 9dbe
